models/lpips_models/alex.pth (torch_old, 6009 bytes, 5 tensors)

lin0.model.1.weight f4 [1, 64, 1, 1]
0	0x367e3544	3.7879954e-06
1	0x3e170a91	0.14750125
2	0x36878258	4.0384875e-06
3	0x00000000	0.0
4	0x375a6925	1.3018293e-05
5	0x00000000	0.0
6	0x00000000	0.0
7	0x00000000	0.0
8	0x3e27855f	0.16359471
9	0x00000000	0.0
10	0x00000000	0.0
11	0x00000000	0.0
12	0x00000000	0.0
13	0x00000000	0.0
14	0x00000000	0.0
15	0x3d3d0e97	0.046156492
16	0x00000000	0.0
17	0x00000000	0.0
18	0x00000000	0.0
19	0x3e0bba24	0.13645226
20	0x37c5d186	2.3581797e-05
21	0x3e3816c8	0.1797744
22	0x00000000	0.0
23	0x00000000	0.0
24	0x00000000	0.0
25	0x370a0c8e	8.228364e-06
26	0x00000000	0.0
27	0x361b5769	2.314768e-06
28	0x00000000	0.0
29	0x366e5bad	3.5518126e-06
30	0x364c032f	3.0400222e-06
31	0x00000000	0.0
32	0x00000000	0.0
33	0x00000000	0.0
34	0x00000000	0.0
35	0x3cb7ace3	0.022421306
36	0x388350ed	6.2616404e-05
37	0x3e2a7e05	0.16649635
38	0x3788c857	1.6305754e-05
39	0x00000000	0.0
40	0x3ea22695	0.3167006
41	0x00000000	0.0
42	0x35df74d0	1.6648792e-06
43	0x00000000	0.0
44	0x373c5302	1.1225e-05
45	0x00000000	0.0
46	0x00000000	0.0
47	0x00000000	0.0
48	0x00000000	0.0
49	0x361efe76	2.369195e-06
50	0x00000000	0.0
51	0x3e7cd31b	0.24689905
52	0x3e92f98e	0.2870602
53	0x3e13a0ed	0.14416857
54	0x36b3feeb	5.364292e-06
55	0x00000000	0.0
56	0x3608d01d	2.0386717e-06
57	0x00000000	0.0
58	0x36986580	4.541769e-06
59	0x35183f8a	5.6716874e-07
60	0x3efbf9a0	0.49213886
61	0x00000000	0.0
62	0x00000000	0.0
63	0x00000000	0.0

lin1.model.1.weight f4 [1, 192, 1, 1]
0	0x00000000	0.0
1	0x00000000	0.0
2	0x00000000	0.0
3	0x38885e00	6.502494e-05
4	0x3f85856a	1.043134
5	0x386feacf	5.7200723e-05
6	0x3de51492	0.11185564
7	0x3e8798e4	0.26483834
8	0x37152b36	8.891153e-06
9	0x38775a4f	5.8973495e-05
10	0x389ecb5e	7.571907e-05
11	0x3d1f4dfc	0.03889273
12	0x354dfeec	7.673941e-07
13	0x3939603f	0.0001767883
14	0x37f6d528	2.9424744e-05
15	0x373dc193	1.1310348e-05
16	0x00000000	0.0
17	0x35be8cbb	1.4197061e-06
18	0x38f92e18	0.00011881831
19	0x388ce887	6.719032e-05
20	0x3e140077	0.14453302
21	0x3e7e0d84	0.24809843
22	0x364ec8ff	3.0813387e-06
23	0x38a873cd	8.032434e-05
24	0x00000000	0.0
25	0x3e6c8be0	0.23100233
26	0x378a0bd2	1.6456386e-05
27	0x3d1f301e	0.038864248
28	0x3d7d5f43	0.061858427
29	0x00000000	0.0
30	0x379999f4	1.8310711e-05
31	0x3e3fa4fe	0.18715283
32	0x38a37577	7.794325e-05
33	0x00000000	0.0
34	0x3914e12f	0.00014198267
35	0x379ff41c	1.906795e-05
36	0x38a87cb9	8.034096e-05
37	0x35140816	5.5146063e-07
38	0x3968fb3c	0.00022218836
39	0x3d6c901d	0.057754625
40	0x36296d31	2.524652e-06
41	0x3d3e52a7	0.046465542
42	0x00000000	0.0
43	0x00000000	0.0
44	0x383ac923	4.453318e-05
45	0x38214c6e	3.8456572e-05
46	0x3662d835	3.3802473e-06
47	0x3e7f44c1	0.24928571
48	0x00000000	0.0
49	0x00000000	0.0
50	0x379f38a3	1.898065e-05
51	0x36a14961	4.8067163e-06
52	0x00000000	0.0
53	0x3737d0fb	1.0956307e-05
54	0x00000000	0.0
55	0x3e42e403	0.19032292
56	0x3eb3731a	0.35048753
57	0x00000000	0.0
58	0x38151151	3.5540495e-05
59	0x3dc8a670	0.097973704
60	0x00000000	0.0
61	0x3efb8dbb	0.4913157
62	0x3ed195d2	0.40934616
63	0x39833962	0.0002502902
64	0x3e3c948a	0.18416038
65	0x3d14fe01	0.03637505
66	0x00000000	0.0
67	0x3f7b673c	0.982044
68	0x3edb4afb	0.42830643
69	0x00000000	0.0
70	0x389087f9	6.891782e-05
71	0x00000000	0.0
72	0x385901ce	5.1738512e-05
73	0x38883b58	6.496039e-05
74	0x00000000	0.0
75	0x00000000	0.0
76	0x00000000	0.0
77	0x3f58ecf4	0.8473656
78	0x3ec12b8c	0.37728536
79	0x39cc2649	0.00038938437
80	0x38724ff9	5.7771776e-05
81	0x3590676f	1.0758939e-06
82	0x38357183	4.325948e-05
83	0x37b78b02	2.188003e-05
84	0x00000000	0.0
85	0x37dbbe62	2.6195488e-05
86	0x38326b8f	4.253868e-05
87	0x3f07aae6	0.52995145
88	0x35b97c86	1.3819815e-06
89	0x00000000	0.0
90	0x00000000	0.0
91	0x369a826a	4.60474e-06
92	0x367f5d59	3.8052297e-06
93	0x3da8afd2	0.0823666
94	0x00000000	0.0
95	0x00000000	0.0
96	0x00000000	0.0
97	0x00000000	0.0
98	0x00000000	0.0
99	0x00000000	0.0
100	0x3638a88b	2.7516242e-06
101	0x00000000	0.0
102	0x00000000	0.0
103	0x00000000	0.0
104	0x3e8bb2c4	0.27284825
105	0x3f3d08d5	0.738416
106	0x3d44e9d0	0.048074543
107	0x00000000	0.0
108	0x3e2dad80	0.16960716
109	0x3911b6da	0.00013896395
110	0x3e8ee501	0.2790909
111	0x00000000	0.0
112	0x3f24499a	0.6417481
113	0x00000000	0.0
114	0x00000000	0.0
115	0x3de589b0	0.112079024
116	0x00000000	0.0
117	0x3733e28a	1.0721977e-05
118	0x3bccdb0d	0.006251699
119	0x370e38a4	8.477047e-06
120	0x36d8a30a	6.456282e-06
121	0x3f08f85a	0.53503954
122	0x3dbd5d07	0.09246259
123	0x397a0c9e	0.00023846558
124	0x3685f997	3.992765e-06
125	0x3d074ea6	0.03303399
126	0x39c73d89	0.00038002085
127	0x00000000	0.0
128	0x3db0391e	0.08604644
129	0x3e5fa87a	0.21841612
130	0x3dd44fb3	0.10366764
131	0x00000000	0.0
132	0x3e37927f	0.17926978
133	0x3e48b4b6	0.19600186
134	0x3e88a5f1	0.26689103
135	0x00000000	0.0
136	0x00000000	0.0
137	0x35930b8f	1.0955717e-06
138	0x37b7a923	2.189406e-05
139	0x39230acc	0.00015548914
140	0x3854724a	5.065118e-05
141	0x00000000	0.0
142	0x3d97ad9a	0.07406159
143	0x00000000	0.0
144	0x3d636667	0.05551758
145	0x36d4e71d	6.3449975e-06
146	0x37f55981	2.9247954e-05
147	0x00000000	0.0
148	0x3f736fbb	0.9509236
149	0x3e89f2ec	0.26943147
150	0x369b5ce0	4.630172e-06
151	0x379504dd	1.7764449e-05
152	0x00000000	0.0
153	0x3911670d	0.00013866667
154	0x38a63fab	7.927356e-05
155	0x00000000	0.0
156	0x00000000	0.0
157	0x00000000	0.0
158	0x366fa716	3.5711032e-06
159	0x384bcdbf	4.8590588e-05
160	0x3e5d9088	0.21637166
161	0x3d367745	0.044547338
162	0x3743e040	1.1675118e-05
163	0x00000000	0.0
164	0x3d7c7f75	0.06164499
165	0x3a545249	0.00080994196
166	0x3f86092d	1.047155
167	0x00000000	0.0
168	0x00000000	0.0
169	0x36b56b6e	5.406727e-06
170	0x384f3de6	4.9410293e-05
171	0x3ea540c1	0.32275966
172	0x3864bb20	5.453371e-05
173	0x3ed83746	0.4222967
174	0x3e0ab5f0	0.13545966
175	0x3d9679a2	0.07347418
176	0x3d33b660	0.0438751
177	0x38979e73	7.2297546e-05
178	0x3911ca98	0.0001390375
179	0x38d33264	0.0001007065
180	0x39aaa655	0.00032548854
181	0x3d96b55b	0.073588096
182	0x3690f54c	4.3200907e-06
183	0x00000000	0.0
184	0x3892daea	7.0025984e-05
185	0x388d2a47	6.731279e-05
186	0x00000000	0.0
187	0x38a1e86e	7.720372e-05
188	0x00000000	0.0
189	0x36348395	2.689868e-06
190	0x381d7fdb	3.755079e-05
191	0x3f22e104	0.63624597

lin2.model.1.weight f4 [1, 384, 1, 1]
0	0x38e3555f	0.00010840105
1	0x3e8ab5cb	0.27091822
2	0x3dbe2f52	0.092863694
3	0x3f3c41d8	0.7353797
4	0x38cbed18	9.7239565e-05
5	0x3a0b30ca	0.00053096993
6	0x3ec3d994	0.38251936
7	0x00000000	0.0
8	0x00000000	0.0
9	0x38bbf580	8.962583e-05
10	0x386f09ea	5.6991274e-05
11	0x00000000	0.0
12	0x3845e6f6	4.718356e-05
13	0x00000000	0.0
14	0x389ff136	7.62664e-05
15	0x3689a503	4.102128e-06
16	0x3bddd396	0.006769608
17	0x397fcc89	0.0002439489
18	0x3e1a744d	0.15083428
19	0x3e55cb36	0.208783
20	0x00000000	0.0
21	0x00000000	0.0
22	0x3766f664	1.3766436e-05
23	0x39fb8847	0.00047975985
24	0x38c190e3	9.2299444e-05
25	0x3a1f7387	0.00060825836
26	0x36e0ce08	6.6997054e-06
27	0x3650ef9b	3.1133884e-06
28	0x3ed8d500	0.42350006
29	0x00000000	0.0
30	0x3f4ffb27	0.81242603
31	0x3e62ec50	0.22160459
32	0x3a88e81e	0.0010445153
33	0x38932e59	7.018139e-05
34	0x36b85094	5.493008e-06
35	0x3ddf4801	0.109024055
36	0x3ca8199d	0.020520026
37	0x00000000	0.0
38	0x3742b196	1.16046485e-05
39	0x38f9daec	0.000119140226
40	0x3de696bd	0.1125922
41	0x3ebc180b	0.36737093
42	0x38f8b9d3	0.00011860174
43	0x3cce2f89	0.02516915
44	0x3cd0b960	0.025479019
45	0x3793ec6c	1.7633858e-05
46	0x3e467f7e	0.19384572
47	0x3898652b	7.266769e-05
48	0x3e4e83f7	0.20167528
49	0x39c32320	0.00037219469
50	0x39e90e78	0.00044452003
51	0x3dc97880	0.09837437
52	0x380c2d1e	3.342062e-05
53	0x3eb3cb6e	0.35116142
54	0x39630e3f	0.00021653714
55	0x38b8624e	8.7921144e-05
56	0x391b69e5	0.000148214
57	0x00000000	0.0
58	0x399aafd9	0.00029504186
59	0x3c26ac91	0.010172979
60	0x388b0678	6.6292414e-05
61	0x36981264	4.532094e-06
62	0x3f4183f4	0.7559197
63	0x38c5fa0f	9.440269e-05
64	0x37e242ae	2.697235e-05
65	0x3c6d3c3c	0.014479693
66	0x3d53e77c	0.051734433
67	0x3b9880b0	0.0046540126
68	0x39fee011	0.00048613598
69	0x3905f2b4	0.00012774282
70	0x00000000	0.0
71	0x3ddbfe94	0.10741916
72	0x39c55768	0.0003763989
73	0x38092db9	3.2705928e-05
74	0x3911e825	0.00013914758
75	0x397faa60	0.00024382165
76	0x3e8fc520	0.28080082
77	0x39344945	0.00017193433
78	0x00000000	0.0
79	0x3d082455	0.033237774
80	0x3e392fda	0.1808466
81	0x39bf9270	0.00036539463
82	0x383694b7	4.3530683e-05
83	0x3e922bf6	0.28549165
84	0x397ff2ed	0.00024409192
85	0x3e0c443e	0.13697907
86	0x3deab87e	0.1146097
87	0x3e927281	0.28602985
88	0x37cbfce3	2.4317245e-05
89	0x3d73c8c9	0.059517656
90	0x3de34f34	0.11099091
91	0x00000000	0.0
92	0x3e2625d9	0.16225375
93	0x3d94315c	0.07235977
94	0x3898a22e	7.278133e-05
95	0x3e42a380	0.19007683
96	0x39ba908f	0.0003558439
97	0x3a27e2ec	0.00064043584
98	0x3eafb453	0.34317264
99	0x39cd165a	0.000391173
100	0x36ad2d06	5.161043e-06
101	0x3a264588	0.00063427584
102	0x3df929e4	0.12166193
103	0x3d828c8b	0.06374463
104	0x38a103fa	7.677819e-05
105	0x39c7f1f3	0.00038136504
106	0x37c97138	2.4013789e-05
107	0x3c95896b	0.018254003
108	0x381dffe9	3.7670052e-05
109	0x3891c176	6.950174e-05
110	0x39912bfd	0.0002768933
111	0x3893fe69	7.056894e-05
112	0x3f60a195	0.87746555
113	0x391d4519	0.00014998428
114	0x00000000	0.0
115	0x3783c411	1.5707717e-05
116	0x3958e02f	0.0002068288
117	0x3e6b9e0b	0.23009507
118	0x388cb146	6.70874e-05
119	0x00000000	0.0
120	0x3c73cd62	0.01488051
121	0x00000000	0.0
122	0x3ee57449	0.4481528
123	0x3ce1b85a	0.027553726
124	0x39ff2462	0.00048664497
125	0x3cb362ae	0.02189764
126	0x37abeaa5	2.0494053e-05
127	0x39d59e85	0.00040744632
128	0x3e5a7b35	0.21336062
129	0x3945f622	0.00018879076
130	0x00000000	0.0
131	0x3ec7ec88	0.39047647
132	0x3c24e091	0.010063306
133	0x3e20d0da	0.1570467
134	0x3d63c92b	0.05561177
135	0x3e935903	0.28778848
136	0x3e3d18c0	0.18466473
137	0x3e0e2072	0.13879564
138	0x39dd7816	0.00042241876
139	0x39adb24b	0.0003312997
140	0x3e137bcc	0.14402694
141	0x3a0da424	0.0005403182
142	0x37b03b16	2.1008349e-05
143	0x39b95169	0.00035346605
144	0x3868f716	5.5543227e-05
145	0x3eec306a	0.46130687
146	0x3f15cd93	0.58516806
147	0x3903bce6	0.00012563504
148	0x3f4263c3	0.75933474
149	0x3d532cc8	0.05155638
150	0x00000000	0.0
151	0x37816de2	1.5429167e-05
152	0x3d2e4efd	0.042555798
153	0x3f7dc9dd	0.99136144
154	0x385d4482	5.275431e-05
155	0x39b39780	0.00034254417
156	0x3ede97d3	0.43475208
157	0x3e2710e5	0.16315039
158	0x3e8a8532	0.27054745
159	0x38ba249d	8.875991e-05
160	0x3596fc58	1.1249313e-06
161	0x399a5f92	0.00029444374
162	0x00000000	0.0
163	0x00000000	0.0
164	0x37b76ce6	2.186601e-05
165	0x39b338f8	0.00034183986
166	0x3e5ec7c3	0.2175589
167	0x00000000	0.0
168	0x3e72af03	0.23699574
169	0x3f79d1c3	0.97585696
170	0x3f37c80a	0.7178961
171	0x3892d71b	7.001889e-05
172	0x3e941dd2	0.28929
173	0x393d4817	0.000180513
174	0x3c4d0693	0.012513774
175	0x3d980f80	0.074248314
176	0x3ebda4d4	0.37039816
177	0x3845f567	4.719701e-05
178	0x3ddc4917	0.10756128
179	0x380d0dd1	3.3629887e-05
180	0x37f29cfe	2.8921753e-05
181	0x3db0249b	0.08600732
182	0x37a43bb8	1.9578132e-05
183	0x38f062e2	0.0001146251
184	0x394e9bfa	0.00019703797
185	0x37c5a94b	2.3563063e-05
186	0x00000000	0.0
187	0x388beb54	6.67187e-05
188	0x391d461c	0.00014998805
189	0x00000000	0.0
190	0x378e73be	1.6981616e-05
191	0x3e8b17a5	0.27166477
192	0x3eb46f01	0.3524094
193	0x3698109d	4.531887e-06
194	0x37645104	1.3608722e-05
195	0x3980a841	0.0002453942
196	0x3db31468	0.087441266
197	0x00000000	0.0
198	0x00000000	0.0
199	0x3ea2a09a	0.31763154
200	0x37dca860	2.630445e-05
201	0x3ea34a53	0.31892642
202	0x386c2dcc	5.6309436e-05
203	0x399fbb47	0.00030466376
204	0x3e8eb332	0.2787109
205	0x3ea208dd	0.31647387
206	0x3ead09eb	0.3379663
207	0x37ce85cd	2.461942e-05
208	0x3e5ed58d	0.2176115
209	0x3ee4172a	0.44548923
210	0x3e32425e	0.1740813
211	0x38032262	3.1264855e-05
212	0x3a18b850	0.00058258045
213	0x38c9a79b	9.615646e-05
214	0x39064d33	0.00012807995
215	0x38cf13f3	9.874245e-05
216	0x399a611f	0.0002944553
217	0x3e4725a6	0.19447955
218	0x00000000	0.0
219	0x3df2d11a	0.11856289
220	0x00000000	0.0
221	0x3e79268e	0.24331114
222	0x38ce8a89	9.84865e-05
223	0x3895a8fe	7.136351e-05
224	0x3e959bc4	0.29220402
225	0x3f415788	0.7552419
226	0x3e589682	0.21151164
227	0x00000000	0.0
228	0x388a23d4	6.587026e-05
229	0x3f06fd29	0.5273004
230	0x390e88c8	0.0001359313
231	0x39536294	0.00020159251
232	0x3eb22380	0.3479271
233	0x3fa96aa4	1.3235669
234	0x377e4689	1.51560025e-05
235	0x38d95606	0.000103633894
236	0x3ea18900	0.31549835
237	0x399568b8	0.00028497516
238	0x3d4103a4	0.047122613
239	0x37b09ad8	2.105294e-05
240	0x3941f9aa	0.00018498921
241	0x00000000	0.0
242	0x389c48e4	7.4522366e-05
243	0x392349b5	0.0001557235
244	0x3823a319	3.9014125e-05
245	0x3e9b9933	0.3039032
246	0x3d975551	0.0738932
247	0x3e57dbaf	0.21079896
248	0x3deb2392	0.11481394
249	0x3d8909a5	0.06691293
250	0x37807e02	1.5317466e-05
251	0x384c3f69	4.8696445e-05
252	0x3e8cf935	0.2753388
253	0x00000000	0.0
254	0x3dafa5fc	0.08576581
255	0x3c12638c	0.008934867

lin3.model.1.weight f4 [1, 256, 1, 1]
0	0x3e12076b	0.14260642
1	0x391bf3e6	0.00014872811
2	0x3e190738	0.1494416
3	0x3c9d80fd	0.019226545
4	0x385ec042	5.310798e-05
5	0x3e26771d	0.16256376
6	0x3e2f1180	0.1709652
7	0x37903f5a	1.7195638e-05
8	0x00000000	0.0
9	0x3de1bfbe	0.110229
10	0x3eb2b044	0.34900105
11	0x3ec20bf9	0.3789976
12	0x3f1d6b10	0.6149149
13	0x00000000	0.0
14	0x3cb7000c	0.02233889
15	0x3973a135	0.0002323434
16	0x38e64f40	0.00010982016
17	0x3d5df824	0.054191723
18	0x3ea3b4e3	0.31973943
19	0x39389bd6	0.00017605661
20	0x3c8cc88e	0.017185476
21	0x3eca9010	0.39563036
22	0x3d8cebe0	0.06880927
23	0x39160215	0.0001430589
24	0x3970c2ee	0.000229608
25	0x37ec50d2	2.8171027e-05
26	0x3e168e3c	0.14702696
27	0x3987773c	0.00025838043
28	0x3980a3fc	0.0002453624
29	0x39371eb1	0.00017463673
30	0x3dc729ac	0.09724745
31	0x3de7b0eb	0.11313041
32	0x3decf4ae	0.115701064
33	0x3d89dacb	0.067311846
34	0x3df1bd06	0.118036315
35	0x3ecf5a7f	0.4049873
36	0x00000000	0.0
37	0x3df3650c	0.118845075
38	0x382658e6	3.9660277e-05
39	0x3ec80cee	0.39072365
40	0x3e8588e6	0.26081008
41	0x3e31fbe8	0.17381251
42	0x398606fe	0.0002556368
43	0x3d98606a	0.074402645
44	0x3df089d7	0.11745041
45	0x3b789909	0.0037933013
46	0x3e1b6be6	0.15177879
47	0x3eb7863d	0.35844603
48	0x3cf9f8ea	0.0305142
49	0x3e99c0c8	0.30029893
50	0x3beaad9e	0.00716181
51	0x3d10f1d3	0.03538687
52	0x3ec45fa0	0.38354206
53	0x36edb3bd	7.0840747e-06
54	0x3cd4bce3	0.025968974
55	0x38801917	6.108189e-05
56	0x383f912a	4.5673143e-05
57	0x3e4607e0	0.19338942
58	0x00000000	0.0
59	0x3de98860	0.114029646
60	0x00000000	0.0
61	0x3dd28249	0.10278756
62	0x3c6208b3	0.013796019
63	0x3eb68e9c	0.35655677
64	0x3e4918c9	0.19638361
65	0x3d52984d	0.051414777
66	0x38d21430	0.000100173405
67	0x3c6e8f94	0.014560599
68	0x3d6756cb	0.056479257
69	0x3ddc1328	0.10745841
70	0x3e973a5b	0.2953671
71	0x3e7875d3	0.24263696
72	0x3ea3bee6	0.3198158
73	0x390d488a	0.00013473831
74	0x3d02f5fa	0.031972863
75	0x3d9de879	0.07710356
76	0x390d985d	0.00013503568
77	0x3e94d214	0.29066527
78	0x3a395f0e	0.0007071354
79	0x3cd2c0df	0.025726734
80	0x3d30207f	0.04299974
81	0x3f3f6ba2	0.7477361
82	0x3e01c262	0.12671807
83	0x00000000	0.0
84	0x3d9046f8	0.07044786
85	0x00000000	0.0
86	0x3e22d4e2	0.15901521
87	0x3e4c81e8	0.1997143
88	0x3e07bfbe	0.13256738
89	0x3d86f387	0.06589418
90	0x00000000	0.0
91	0x3e32f9f3	0.1747816
92	0x3d18e25a	0.03732524
93	0x00000000	0.0
94	0x3da8ddb4	0.082454115
95	0x39531037	0.00020128569
96	0x3dc7886b	0.097428165
97	0x3988fdde	0.00026129087
98	0x3ca6efeb	0.020378074
99	0x3f288728	0.6583123
100	0x3cf3c137	0.029755218
101	0x3efd982d	0.49530163
102	0x38bb7cdb	8.940111e-05
103	0x395fc292	0.0002133942
104	0x3e0bdb2d	0.13657828
105	0x3d9d2916	0.07673852
106	0x3cc33989	0.023831146
107	0x3e3f6b7b	0.18693344
108	0x3e612dbb	0.21990101
109	0x00000000	0.0
110	0x39f46859	0.00046617052
111	0x3767f08c	1.382468e-05
112	0x3d462cd4	0.048382595
113	0x3def2983	0.116778396
114	0x3def9d7c	0.1169996
115	0x3c7ce2b3	0.015434909
116	0x3e25c988	0.1619016
117	0x3d839efe	0.0642681
118	0x3e0931fb	0.13397972
119	0x3ebbda8e	0.36690181
120	0x3e70dc1a	0.23521462
121	0x38429fea	4.6402136e-05
122	0x3cb92fe4	0.022605844
123	0x362b1879	2.549523e-06
124	0x3cb45596	0.022013467
125	0x3ed3bf51	0.413569
126	0x39f71479	0.00047126765
127	0x00000000	0.0
128	0x3f3eab93	0.7448055
129	0x3f1644a5	0.58698493
130	0x3d6c22b3	0.05765028
131	0x3db93837	0.09043925
132	0x39b3b756	0.00034278136
133	0x3e87c9c5	0.26521125
134	0x390178bc	0.00012347376
135	0x39b0b05f	0.00033700743
136	0x38596940	5.1834853e-05
137	0x3765ec95	1.3704547e-05
138	0x3d520c1c	0.05128108
139	0x3cc0f5d6	0.023554724
140	0x00000000	0.0
141	0x39bc2dda	0.00035892316
142	0x3937ff9f	0.00017547466
143	0x3e46d91e	0.19418761
144	0x3aba4654	0.0014211633
145	0x3e23bd09	0.1599008
146	0x39299e7e	0.00016176139
147	0x00000000	0.0
148	0x3d893d13	0.06701102
149	0x3df02b98	0.11727065
150	0x3dbe3b25	0.09288625
151	0x3895b2de	7.13819e-05
152	0x3c0c54c7	0.008565134
153	0x3eccb06f	0.39978358
154	0x00000000	0.0
155	0x3d740a0f	0.059579905
156	0x398b246e	0.00026539288
157	0x3cf63d3a	0.030058492
158	0x39534c6c	0.00020150997
159	0x3740a4c3	1.1482453e-05
160	0x398460d1	0.00025249136
161	0x39b606e3	0.00034718876
162	0x3d99c6c7	0.07508617
163	0x3dfee6ff	0.12446403
164	0x39d42adf	0.00040467732
165	0x3e7c8380	0.24659538
166	0x39a4c143	0.0003142451
167	0x3c3ddcb0	0.0115882605
168	0x3dfe28cb	0.124101244
169	0x3d8ff6e2	0.07029511
170	0x3d966aac	0.07344565
171	0x3dc3c749	0.09559495
172	0x38a4d32c	7.859463e-05
173	0x393b382e	0.00017854638
174	0x3ef58cf5	0.47959104
175	0x3c8db4bb	0.017298093
176	0x3dce61f5	0.100772776
177	0x3dce397a	0.100695565
178	0x38924029	6.973773e-05
179	0x3c721e68	0.014777757
180	0x3e58879a	0.21145478
181	0x38b15628	8.4560656e-05
182	0x3f2817b4	0.6566117
183	0x3803c020	3.1411764e-05
184	0x00000000	0.0
185	0x37796a2a	1.4866275e-05
186	0x3644264b	2.9228565e-06
187	0x3ecf1245	0.40443626
188	0x3ea045ee	0.31303352
189	0x3f2da099	0.6782318
190	0x3d6d6948	0.057961732
191	0x38fe0093	0.00012111771
192	0x3b2c6e1d	0.002631075
193	0x3d73e46b	0.05954401
194	0x3d9f0c32	0.07765998
195	0x3de457c8	0.111495554
196	0x3f1f27c4	0.6217005
197	0x38aa9d88	8.135574e-05
198	0x3e10e299	0.1414894
199	0x38ab04bf	8.1547994e-05
200	0x3e9676a5	0.29387394
201	0x3eb26da2	0.34849268
202	0x3c3df32f	0.011593624
203	0x3e31864e	0.1733639
204	0x3d882a16	0.06648652
205	0x38725471	5.777594e-05
206	0x37a33838	1.9457293e-05
207	0x38356575	4.3248252e-05
208	0x00000000	0.0
209	0x399836e6	0.00029032602
210	0x3d3a7dd8	0.04553017
211	0x3771a09b	1.4402113e-05
212	0x3960ddad	0.00021444885
213	0x39292184	0.00016129581
214	0x39933396	0.0002807646
215	0x37093751	8.178716e-06
216	0x37a2c5a4	1.9403938e-05
217	0x3e1dba9a	0.15403214
218	0x38dd3d27	0.00010549492
219	0x3e4a1237	0.19733511
220	0x3db97939	0.090563245
221	0x3d5f0c21	0.054454926
222	0x393941a7	0.00017667432
223	0x38f2208e	0.00011545523
224	0x3dd264ff	0.1027317
225	0x3cbe3595	0.02321891
226	0x3e6152df	0.22004269
227	0x3886d62c	6.4295105e-05
228	0x3e40c7e9	0.1882626
229	0x3993d0d5	0.00028193617
230	0x3e4ead88	0.20183384
231	0x3837432e	4.3693166e-05
232	0x374c1b45	1.2165697e-05
233	0x3e86b586	0.26310366
234	0x3dcf848b	0.101327024
235	0x3eb3c5b4	0.35111773
236	0x3dbe12a2	0.09280898
237	0x39035caa	0.00012527654
238	0x3935b0cc	0.00017327367
239	0x3d812a43	0.06306889
240	0x37fee819	3.0387238e-05
241	0x3eb6dee4	0.35716927
242	0x3c842c92	0.016134534
243	0x3e8f77ab	0.28020987
244	0x37f41e26	2.9101106e-05
245	0x3e293991	0.16525866
246	0x3c293a45	0.010328834
247	0x388d661b	6.7424226e-05
248	0x3ef0103e	0.46887392
249	0x00000000	0.0
250	0x352ec72f	6.51099e-07
251	0x3d941d5a	0.07232161
252	0x00000000	0.0
253	0x3de0ad75	0.10970584
254	0x3e8c6396	0.27419728
255	0x3dd073da	0.10178347

lin4.model.1.weight f4 [1, 256, 1, 1]
0	0x3e45a651	0.19301726
1	0x3d897d6e	0.06713377
2	0x3db67f6e	0.08911024
3	0x3d690741	0.056891683
4	0x3c6b3e23	0.014358076
5	0x3e251ce9	0.1612431
6	0x380afac0	3.3135293e-05
7	0x3d87d2da	0.066320136
8	0x391d2aef	0.00014988681
9	0x3d4f9938	0.05068323
10	0x3d54f4bf	0.05199122
11	0x3e0f0623	0.13967185
12	0x3a2ccd5c	0.000659188
13	0x3db3fd82	0.08788587
14	0x3918ccfc	0.00014572212
15	0x3d271ce5	0.04079904
16	0x3e135ac1	0.14390089
17	0x3e54e00b	0.2078859
18	0x3e349060	0.176332
19	0x3e18b1e0	0.14911604
20	0x3dc6d03d	0.09707687
21	0x3e4a61e3	0.19763903
22	0x3eb9eaa9	0.36311844
23	0x3cb51f28	0.022109583
24	0x3d82719e	0.06369327
25	0x3dc71ac0	0.09721899
26	0x3e1da73d	0.15395828
27	0x3cf877a6	0.03033049
28	0x3cec1ab6	0.02882133
29	0x3bc7ec7e	0.00610119
30	0x39db0d72	0.00041780953
31	0x3e630502	0.22169879
32	0x3c959898	0.018261239
33	0x39ce8edc	0.0003939782
34	0x3e56b18e	0.20966169
35	0x3d932f8b	0.071868025
36	0x3985a46b	0.00025490238
37	0x3aa44991	0.0012534132
38	0x3e07262a	0.13198152
39	0x3de173b0	0.11008394
40	0x3ebe2974	0.37141
41	0x3e807d7f	0.25095746
42	0x3d377664	0.04479064
43	0x3e1bd595	0.15218194
44	0x3e0a60e0	0.13513517
45	0x3d02e612	0.031957693
46	0x3d53bf1e	0.051695935
47	0x3d9bc5c1	0.07606078
48	0x3dec63d1	0.11542476
49	0x3dc0476a	0.09388621
50	0x38e37cae	0.00010847427
51	0x3ecd7514	0.40128386
52	0x3cf4684e	0.029834893
53	0x3c86e66b	0.016467294
54	0x3df40260	0.119145155
55	0x3db7f6d5	0.08982626
56	0x3dc1a987	0.09456163
57	0x38d5ff52	0.000102041886
58	0x3daf3d25	0.08556584
59	0x3c1b0645	0.009461944
60	0x380d57d2	3.369881e-05
61	0x3a7fbf57	0.000975599
62	0x3ed37ddb	0.41306958
63	0x3d1a4430	0.037662685
64	0x3ab7ed9e	0.0014032607
65	0x3e6c4771	0.23074128
66	0x3a1e9935	0.00060500513
67	0x3cb8e4ec	0.022570096
68	0x3cf476e6	0.029841851
69	0x3dbba595	0.09162442
70	0x3de74c9b	0.11293908
71	0x3c692c13	0.0142316995
72	0x3de044e9	0.109506436
73	0x3e4342b5	0.19068415
74	0x3deb8691	0.11500276
75	0x3d2ed316	0.042681776
76	0x3e026e5a	0.12737408
77	0x3e150c33	0.14555435
78	0x3d581e6a	0.05276338
79	0x3bf9cdd3	0.007623413
80	0x3e03394d	0.12814827
81	0x3b6b6388	0.003591748
82	0x3e034bee	0.12821934
83	0x3d4a8854	0.04944642
84	0x39dceb49	0.0004213697
85	0x3ce75b22	0.028241698
86	0x3db49145	0.088167705
87	0x3e107fce	0.14111254
88	0x3d0414c2	0.03224636
89	0x3bc6b2b9	0.006063786
90	0x3e18989a	0.14901963
91	0x3d85dbde	0.06536077
92	0x3e07ca7c	0.13260835
93	0x3de55e81	0.11199666
94	0x3dc0740d	0.09397135
95	0x3de459a6	0.111499116
96	0x3d14230b	0.036166232
97	0x3d9863a7	0.07440882
98	0x3d146f0f	0.036238726
99	0x3e835dcc	0.256575
100	0x3d1075aa	0.035268463
101	0x3dbb3b22	0.09142138
102	0x3e048026	0.1293951
103	0x3df9573b	0.12174841
104	0x3a4bf59c	0.0007780434
105	0x3e3e6822	0.18594411
106	0x3d9aadb9	0.07552666
107	0x3924355b	0.00015660135
108	0x3e70c027	0.235108
109	0x3a0379dd	0.00050154125
110	0x3e0bbc85	0.13646133
111	0x3e0b3178	0.1359309
112	0x3e3cbf39	0.1843232
113	0x3dbe9c3c	0.09307143
114	0x3c517703	0.012784722
115	0x3c295c98	0.0103370175
116	0x3e1737ba	0.14767352
117	0x3de4db53	0.11174645
118	0x00000000	0.0
119	0x3d31a8f0	0.043374002
120	0x3d9b6218	0.07587069
121	0x3d3ca240	0.04605317
122	0x3e3f79be	0.18698785
123	0x3c8ebbe4	0.017423578
124	0x3d2ecbae	0.042674713
125	0x3e2d95a5	0.16951616
126	0x3d031292	0.032000132
127	0x3cf7bbef	0.03024098
128	0x00000000	0.0
129	0x3a474e3a	0.0007602904
130	0x3dd7ba4f	0.105335824
131	0x38b0aa79	8.424087e-05
132	0x3cae7681	0.021296741
133	0x3924bf2b	0.00015711474
134	0x3dd3649e	0.103219256
135	0x3e79e850	0.24405026
136	0x3cf714b6	0.030161243
137	0x3e1746ac	0.14773053
138	0x3dca1f02	0.098691955
139	0x3e4338e8	0.19064677
140	0x3cff1eb2	0.031142566
141	0x3df1da4b	0.11809214
142	0x38e84fa1	0.00011077454
143	0x3dc65ee7	0.0968607
144	0x395d69d4	0.00021115626
145	0x00000000	0.0
146	0x3693c589	4.4039375e-06
147	0x3e18c4b2	0.14918783
148	0x3e1bdd66	0.15221176
149	0x3bca2b77	0.006169732
150	0x397cf9f7	0.00024125712
151	0x3dcbca12	0.09950651
152	0x3d9ba225	0.07599286
153	0x3ce6e244	0.028184064
154	0x39553c6d	0.00020335773
155	0x3e899866	0.26874083
156	0x3dc32da7	0.09530192
157	0x3db3bdc8	0.08776432
158	0x3988523e	0.00026001217
159	0x3a18bead	0.0005826753
160	0x39e73659	0.00044100246
161	0x3ed1169f	0.4083757
162	0x39109822	0.00013789584
163	0x3d9483ce	0.07251702
164	0x3de29ad3	0.110646866
165	0x3d1893dd	0.03725039
166	0x3a7b5727	0.0009587877
167	0x3da39c44	0.0798879
168	0x3a5285ec	0.000803082
169	0x3d473991	0.048638884
170	0x3aa860cb	0.0012846229
171	0x3e5486d7	0.20754562
172	0x3c2f1ebe	0.010688482
173	0x3e97aedc	0.29625595
174	0x3c3d78bb	0.011564429
175	0x3d1a973a	0.037741877
176	0x38405837	4.5858524e-05
177	0x3ed31956	0.41230267
178	0x3898cc66	7.285997e-05
179	0x3c455385	0.012043838
180	0x00000000	0.0
181	0x3cdf6daa	0.027273972
182	0x38a2ca2b	7.762419e-05
183	0x3d6478b6	0.05577918
184	0x3d705742	0.058676966
185	0x3e0f1f9e	0.13976905
186	0x3e1b93cb	0.15193097
187	0x3a35f563	0.00069411675
188	0x393a5f65	0.0001777388
189	0x3ce68621	0.02814013
190	0x3866f4a7	5.5064123e-05
191	0x3d3a7dac	0.045530006
192	0x3ddb1bae	0.10698639
193	0x3ad654f1	0.0016352219
194	0x3c9e3094	0.019310273
195	0x3e202905	0.15640648
196	0x3d39c767	0.04535618
197	0x3d8a3f4f	0.067503564
198	0x3cffbb03	0.031217104
199	0x3916b1d7	0.00014371365
200	0x39f28df7	0.0004626361
201	0x3929c9bd	0.0001619225
202	0x3df8fba5	0.121573724
203	0x3db7fefd	0.08984182
204	0x3ca2a253	0.019852793
205	0x3cc9c3ad	0.024629438
206	0x348aceeb	2.5855056e-07
207	0x3daa301b	0.08309957
208	0x3ad3f5d2	0.0016171283
209	0x3b8e2e35	0.0043390044
210	0x3896bb63	7.187461e-05
211	0x3a0b932f	0.0005324361
212	0x3d7d39a9	0.061822567
213	0x3dad5899	0.08464164
214	0x3993ed7b	0.00028214962
215	0x3eb6753b	0.35636315
216	0x38d8786b	0.00010322112
217	0x3d96c3e2	0.073615804
218	0x3e4aa3df	0.19789074
219	0x39112456	0.00013841814
220	0x3e155867	0.14584504
221	0x3e5214ab	0.20515697
222	0x3dd51776	0.104048654
223	0x3d284893	0.041084837
224	0x3b78549e	0.0037892233
225	0x3bcfcd5f	0.006341621
226	0x3dfa7db8	0.1223101
227	0x3ca0cc37	0.019628627
228	0x3e14c875	0.14529593
229	0x3e798566	0.24367294
230	0x3cb293d7	0.021799011
231	0x3e5938b8	0.21213043
232	0x3da23147	0.07919555
233	0x3dbbc901	0.09169198
234	0x38b1b0cd	8.4729494e-05
235	0x3d3d9cde	0.04629218
236	0x39501123	0.0001984281
237	0x3e335e13	0.17516355
238	0x3905b13e	0.00012749896
239	0x3de4c1b0	0.111697555
240	0x39c5124e	0.00037588406
241	0x3d25b423	0.040454995
242	0x00000000	0.0
243	0x3cf79541	0.030222537
244	0x3d80310c	0.06259355
245	0x3da566ce	0.08076249
246	0x38f5c422	0.00011719043
247	0x3ced7f0b	0.028991243
248	0x3a093e77	0.0005235443
249	0x3e92aa2d	0.2864546
250	0x3da7280b	0.081619345
251	0x3e37ce54	0.17949802
252	0x379fd8fc	1.9055318e-05
253	0x3dea0596	0.11426847
254	0x3e008afb	0.12553017
255	0x3dad23a4	0.084540635
